layer (type)                       Output Shape        Param #     Connected to
====================================================================================================
input_1 (InputLayer)               (None, 2048, 1)     0
____________________________________________________________________________________________________
convolution1d_1 (Convolution1D)    (None, 2048, 32)    1056        input_1[0][0]
____________________________________________________________________________________________________
averagepooling1d_1 (AveragePooling1(None, 1024, 32)    0           convolution1d_1[0][0]
____________________________________________________________________________________________________
convolution1d_2 (Convolution1D)    (None, 1024, 32)    32800       averagepooling1d_1[0][0]
____________________________________________________________________________________________________
averagepooling1d_2 (AveragePooling1(None, 512, 32)     0           convolution1d_2[0][0]
____________________________________________________________________________________________________
convolution1d_3 (Convolution1D)    (None, 512, 32)     16416       averagepooling1d_2[0][0]
____________________________________________________________________________________________________
averagepooling1d_3 (AveragePooling1(None, 256, 32)     0           convolution1d_3[0][0]
____________________________________________________________________________________________________
convolution1d_4 (Convolution1D)    (None, 256, 1)      257         averagepooling1d_3[0][0]
____________________________________________________________________________________________________
averagepooling1d_4 (AveragePooling1(None, 128, 1)      0           convolution1d_4[0][0]
____________________________________________________________________________________________________
upsampling1d_1 (UpSampling1D)      (None, 256, 1)      0           averagepooling1d_4[0][0]
____________________________________________________________________________________________________
convolution1d_5 (Convolution1D)    (None, 256, 32)     1056        upsampling1d_1[0][0]
____________________________________________________________________________________________________
upsampling1d_2 (UpSampling1D)      (None, 512, 32)     0           convolution1d_5[0][0]
____________________________________________________________________________________________________
convolution1d_6 (Convolution1D)    (None, 512, 32)     32800       upsampling1d_2[0][0]
____________________________________________________________________________________________________
upsampling1d_3 (UpSampling1D)      (None, 1024, 32)    0           convolution1d_6[0][0]
____________________________________________________________________________________________________
convolution1d_7 (Convolution1D)    (None, 1024, 32)    32800       upsampling1d_3[0][0]
____________________________________________________________________________________________________
upsampling1d_4 (UpSampling1D)      (None, 2048, 32)    0           convolution1d_7[0][0]
____________________________________________________________________________________________________
convolution1d_8 (Convolution1D)    (None, 2048, 1)     1025        upsampling1d_4[0][0]
====================================================================================================
Total params: 118210
____________________________________________________________________________________________________

